========================================================
      CHATTERBOX MULTILINGUAL TTS ARCHITECTURE
========================================================

--- Overall Model Wrapper ---
<chatterbox.mtl_tts.ChatterboxMultilingualTTS object at 0x0000024BA63B4BF0>

--- T3 Backbone (Text-to-Speech LLM) ---
T3(
  (tfmr): LlamaModel(
    (embed_tokens): Embedding(8, 1024)
    (layers): ModuleList(
      (0-29): 30 x LlamaDecoderLayer(
        (self_attn): LlamaAttention(
          (q_proj): Linear(in_features=1024, out_features=1024, bias=False)
          (k_proj): Linear(in_features=1024, out_features=1024, bias=False)
          (v_proj): Linear(in_features=1024, out_features=1024, bias=False)
          (o_proj): Linear(in_features=1024, out_features=1024, bias=False)
        )
        (mlp): LlamaMLP(
          (gate_proj): Linear(in_features=1024, out_features=4096, bias=False)
          (up_proj): Linear(in_features=1024, out_features=4096, bias=False)
          (down_proj): Linear(in_features=4096, out_features=1024, bias=False)
          (act_fn): SiLUActivation()
        )
        (input_layernorm): LlamaRMSNorm((1024,), eps=1e-05)
        (post_attention_layernorm): LlamaRMSNorm((1024,), eps=1e-05)
      )
    )
    (norm): LlamaRMSNorm((1024,), eps=1e-05)
    (rotary_emb): LlamaRotaryEmbedding()
  )
  (cond_enc): T3CondEnc(
    (spkr_enc): Linear(in_features=256, out_features=1024, bias=True)
    (emotion_adv_fc): Linear(in_features=1, out_features=1024, bias=False)
    (perceiver): Perceiver(
      (attn): AttentionBlock2(
        (norm): LayerNorm((1024,), eps=1e-05, elementwise_affine=True)
        (to_q): Linear(in_features=1024, out_features=1024, bias=True)
        (to_k): Linear(in_features=1024, out_features=1024, bias=True)
        (to_v): Linear(in_features=1024, out_features=1024, bias=True)
        (attention): AttentionQKV(
          (dropout): Dropout(p=0.2, inplace=False)
        )
        (proj_out): Linear(in_features=1024, out_features=1024, bias=True)
      )
    )
  )
  (text_emb): Embedding(2455, 1024)
  (speech_emb): Embedding(8194, 1024)
  (text_pos_emb): LearnedPositionEmbeddings(
    (emb): Embedding(2050, 1024)
  )
  (speech_pos_emb): LearnedPositionEmbeddings(
    (emb): Embedding(4100, 1024)
  )
  (text_head): Linear(in_features=1024, out_features=2455, bias=False)
  (speech_head): Linear(in_features=1024, out_features=8194, bias=False)
)

--- S3Gen (Vocoder / Tokenizer) ---
S3Token2Wav(
  (tokenizer): S3Tokenizer(
    (encoder): AudioEncoderV2(
      (conv1): Conv1d(128, 1280, kernel_size=(3,), stride=(2,), padding=(1,))
      (conv2): Conv1d(1280, 1280, kernel_size=(3,), stride=(2,), padding=(1,))
      (blocks): ModuleList(
        (0-5): 6 x ResidualAttentionBlock(
          (attn): FSMNMultiHeadAttention(
            (query): Linear(in_features=1280, out_features=1280, bias=True)
            (key): Linear(in_features=1280, out_features=1280, bias=False)
            (value): Linear(in_features=1280, out_features=1280, bias=True)
            (out): Linear(in_features=1280, out_features=1280, bias=True)
            (fsmn_block): Conv1d(1280, 1280, kernel_size=(31,), stride=(1,), groups=1280, bias=False)
            (pad_fn): ConstantPad1d(padding=(15, 15), value=0.0)
          )
          (attn_ln): LayerNorm((1280,), eps=1e-05, elementwise_affine=True)
          (mlp): Sequential(
            (0): Linear(in_features=1280, out_features=5120, bias=True)
            (1): GELU(approximate='none')
            (2): Linear(in_features=5120, out_features=1280, bias=True)
          )
          (mlp_ln): LayerNorm((1280,), eps=1e-05, elementwise_affine=True)
        )
      )
    )
    (quantizer): FSQVectorQuantization(
      (_codebook): FSQCodebook(
        (project_down): Linear(in_features=1280, out_features=8, bias=True)
      )
    )
  )
  (speaker_encoder): CAMPPlus(
    (head): FCM(
      (conv1): Conv2d(1, 32, kernel_size=(3, 3), stride=(1, 1), padding=(1, 1), bias=False)
      (bn1): BatchNorm2d(32, eps=1e-05, momentum=0.1, affine=True, track_running_stats=True)
      (layer1): Sequential(
        (0): BasicResBlock(
          (conv1): Conv2d(32, 32, kernel_size=(3, 3), stride=(2, 1), padding=(1, 1), bias=False)
          (bn1): BatchNorm2d(32, eps=1e-05, momentum=0.1, affine=True, track_running_stats=True)
          (conv2): Conv2d(32, 32, kernel_size=(3, 3), stride=(1, 1), padding=(1, 1), bias=False)
          (bn2): BatchNorm2d(32, eps=1e-05, momentum=0.1, affine=True, track_running_stats=True)
          (shortcut): Sequential(
            (0): Conv2d(32, 32, kernel_size=(1, 1), stride=(2, 1), bias=False)
            (1): BatchNorm2d(32, eps=1e-05, momentum=0.1, affine=True, track_running_stats=True)
          )
        )
        (1): BasicResBlock(
          (conv1): Conv2d(32, 32, kernel_size=(3, 3), stride=(1, 1), padding=(1, 1), bias=False)
          (bn1): BatchNorm2d(32, eps=1e-05, momentum=0.1, affine=True, track_running_stats=True)
          (conv2): Conv2d(32, 32, kernel_size=(3, 3), stride=(1, 1), padding=(1, 1), bias=False)
          (bn2): BatchNorm2d(32, eps=1e-05, momentum=0.1, affine=True, track_running_stats=True)
          (shortcut): Sequential()
        )
      )
      (layer2): Sequential(
        (0): BasicResBlock(
          (conv1): Conv2d(32, 32, kernel_size=(3, 3), stride=(2, 1), padding=(1, 1), bias=False)
          (bn1): BatchNorm2d(32, eps=1e-05, momentum=0.1, affine=True, track_running_stats=True)
          (conv2): Conv2d(32, 32, kernel_size=(3, 3), stride=(1, 1), padding=(1, 1), bias=False)
          (bn2): BatchNorm2d(32, eps=1e-05, momentum=0.1, affine=True, track_running_stats=True)
          (shortcut): Sequential(
            (0): Conv2d(32, 32, kernel_size=(1, 1), stride=(2, 1), bias=False)
            (1): BatchNorm2d(32, eps=1e-05, momentum=0.1, affine=True, track_running_stats=True)
          )
        )
        (1): BasicResBlock(
          (conv1): Conv2d(32, 32, kernel_size=(3, 3), stride=(1, 1), padding=(1, 1), bias=False)
          (bn1): BatchNorm2d(32, eps=1e-05, momentum=0.1, affine=True, track_running_stats=True)
          (conv2): Conv2d(32, 32, kernel_size=(3, 3), stride=(1, 1), padding=(1, 1), bias=False)
          (bn2): BatchNorm2d(32, eps=1e-05, momentum=0.1, affine=True, track_running_stats=True)
          (shortcut): Sequential()
        )
      )
      (conv2): Conv2d(32, 32, kernel_size=(3, 3), stride=(2, 1), padding=(1, 1), bias=False)
      (bn2): BatchNorm2d(32, eps=1e-05, momentum=0.1, affine=True, track_running_stats=True)
    )
    (xvector): Sequential(
      (tdnn): TDNNLayer(
        (linear): Conv1d(320, 128, kernel_size=(5,), stride=(2,), padding=(2,), bias=False)
        (nonlinear): Sequential(
          (batchnorm): BatchNorm1d(128, eps=1e-05, momentum=0.1, affine=True, track_running_stats=True)
          (relu): ReLU(inplace=True)
        )
      )
      (block1): CAMDenseTDNNBlock(
        (0): CAMDenseTDNNLayer(
          (nonlinear1): Sequential(
            (batchnorm): BatchNorm1d(128, eps=1e-05, momentum=0.1, affine=True, track_running_stats=True)
            (relu): ReLU(inplace=True)
          )
          (linear1): Conv1d(128, 128, kernel_size=(1,), stride=(1,), bias=False)
          (nonlinear2): Sequential(
            (batchnorm): BatchNorm1d(128, eps=1e-05, momentum=0.1, affine=True, track_running_stats=True)
            (relu): ReLU(inplace=True)
          )
          (cam_layer): CAMLayer(
            (linear_local): Conv1d(128, 32, kernel_size=(3,), stride=(1,), padding=(1,), bias=False)
            (linear1): Conv1d(128, 64, kernel_size=(1,), stride=(1,))
            (relu): ReLU(inplace=True)
            (linear2): Conv1d(64, 32, kernel_size=(1,), stride=(1,))
            (sigmoid): Sigmoid()
          )
        )
        (1): CAMDenseTDNNLayer(
          (nonlinear1): Sequential(
            (batchnorm): BatchNorm1d(160, eps=1e-05, momentum=0.1, affine=True, track_running_stats=True)
            (relu): ReLU(inplace=True)
          )
          (linear1): Conv1d(160, 128, kernel_size=(1,), stride=(1,), bias=False)
          (nonlinear2): Sequential(
            (batchnorm): BatchNorm1d(128, eps=1e-05, momentum=0.1, affine=True, track_running_stats=True)
            (relu): ReLU(inplace=True)
          )
          (cam_layer): CAMLayer(
            (linear_local): Conv1d(128, 32, kernel_size=(3,), stride=(1,), padding=(1,), bias=False)
            (linear1): Conv1d(128, 64, kernel_size=(1,), stride=(1,))
            (relu): ReLU(inplace=True)
            (linear2): Conv1d(64, 32, kernel_size=(1,), stride=(1,))
            (sigmoid): Sigmoid()
          )
        )
        (2): CAMDenseTDNNLayer(
          (nonlinear1): Sequential(
            (batchnorm): BatchNorm1d(192, eps=1e-05, momentum=0.1, affine=True, track_running_stats=True)
            (relu): ReLU(inplace=True)
          )
          (linear1): Conv1d(192, 128, kernel_size=(1,), stride=(1,), bias=False)
          (nonlinear2): Sequential(
            (batchnorm): BatchNorm1d(128, eps=1e-05, momentum=0.1, affine=True, track_running_stats=True)
            (relu): ReLU(inplace=True)
          )
          (cam_layer): CAMLayer(
            (linear_local): Conv1d(128, 32, kernel_size=(3,), stride=(1,), padding=(1,), bias=False)
            (linear1): Conv1d(128, 64, kernel_size=(1,), stride=(1,))
            (relu): ReLU(inplace=True)
            (linear2): Conv1d(64, 32, kernel_size=(1,), stride=(1,))
            (sigmoid): Sigmoid()
          )
        )
        (3): CAMDenseTDNNLayer(
          (nonlinear1): Sequential(
            (batchnorm): BatchNorm1d(224, eps=1e-05, momentum=0.1, affine=True, track_running_stats=True)
            (relu): ReLU(inplace=True)
          )
          (linear1): Conv1d(224, 128, kernel_size=(1,), stride=(1,), bias=False)
          (nonlinear2): Sequential(
            (batchnorm): BatchNorm1d(128, eps=1e-05, momentum=0.1, affine=True, track_running_stats=True)
            (relu): ReLU(inplace=True)
          )
          (cam_layer): CAMLayer(
            (linear_local): Conv1d(128, 32, kernel_size=(3,), stride=(1,), padding=(1,), bias=False)
            (linear1): Conv1d(128, 64, kernel_size=(1,), stride=(1,))
            (relu): ReLU(inplace=True)
            (linear2): Conv1d(64, 32, kernel_size=(1,), stride=(1,))
            (sigmoid): Sigmoid()
          )
        )
        (4): CAMDenseTDNNLayer(
          (nonlinear1): Sequential(
            (batchnorm): BatchNorm1d(256, eps=1e-05, momentum=0.1, affine=True, track_running_stats=True)
            (relu): ReLU(inplace=True)
          )
          (linear1): Conv1d(256, 128, kernel_size=(1,), stride=(1,), bias=False)
          (nonlinear2): Sequential(
            (batchnorm): BatchNorm1d(128, eps=1e-05, momentum=0.1, affine=True, track_running_stats=True)
            (relu): ReLU(inplace=True)
          )
          (cam_layer): CAMLayer(
            (linear_local): Conv1d(128, 32, kernel_size=(3,), stride=(1,), padding=(1,), bias=False)
            (linear1): Conv1d(128, 64, kernel_size=(1,), stride=(1,))
            (relu): ReLU(inplace=True)
            (linear2): Conv1d(64, 32, kernel_size=(1,), stride=(1,))
            (sigmoid): Sigmoid()
          )
        )
        (5): CAMDenseTDNNLayer(
          (nonlinear1): Sequential(
            (batchnorm): BatchNorm1d(288, eps=1e-05, momentum=0.1, affine=True, track_running_stats=True)
            (relu): ReLU(inplace=True)
          )
          (linear1): Conv1d(288, 128, kernel_size=(1,), stride=(1,), bias=False)
          (nonlinear2): Sequential(
            (batchnorm): BatchNorm1d(128, eps=1e-05, momentum=0.1, affine=True, track_running_stats=True)
            (relu): ReLU(inplace=True)
          )
          (cam_layer): CAMLayer(
            (linear_local): Conv1d(128, 32, kernel_size=(3,), stride=(1,), padding=(1,), bias=False)
            (linear1): Conv1d(128, 64, kernel_size=(1,), stride=(1,))
            (relu): ReLU(inplace=True)
            (linear2): Conv1d(64, 32, kernel_size=(1,), stride=(1,))
            (sigmoid): Sigmoid()
          )
        )
        (6): CAMDenseTDNNLayer(
          (nonlinear1): Sequential(
            (batchnorm): BatchNorm1d(320, eps=1e-05, momentum=0.1, affine=True, track_running_stats=True)
            (relu): ReLU(inplace=True)
          )
          (linear1): Conv1d(320, 128, kernel_size=(1,), stride=(1,), bias=False)
          (nonlinear2): Sequential(
            (batchnorm): BatchNorm1d(128, eps=1e-05, momentum=0.1, affine=True, track_running_stats=True)
            (relu): ReLU(inplace=True)
          )
          (cam_layer): CAMLayer(
            (linear_local): Conv1d(128, 32, kernel_size=(3,), stride=(1,), padding=(1,), bias=False)
            (linear1): Conv1d(128, 64, kernel_size=(1,), stride=(1,))
            (relu): ReLU(inplace=True)
            (linear2): Conv1d(64, 32, kernel_size=(1,), stride=(1,))
            (sigmoid): Sigmoid()
          )
        )
        (7): CAMDenseTDNNLayer(
          (nonlinear1): Sequential(
            (batchnorm): BatchNorm1d(352, eps=1e-05, momentum=0.1, affine=True, track_running_stats=True)
            (relu): ReLU(inplace=True)
          )
          (linear1): Conv1d(352, 128, kernel_size=(1,), stride=(1,), bias=False)
          (nonlinear2): Sequential(
            (batchnorm): BatchNorm1d(128, eps=1e-05, momentum=0.1, affine=True, track_running_stats=True)
            (relu): ReLU(inplace=True)
          )
          (cam_layer): CAMLayer(
            (linear_local): Conv1d(128, 32, kernel_size=(3,), stride=(1,), padding=(1,), bias=False)
            (linear1): Conv1d(128, 64, kernel_size=(1,), stride=(1,))
            (relu): ReLU(inplace=True)
            (linear2): Conv1d(64, 32, kernel_size=(1,), stride=(1,))
            (sigmoid): Sigmoid()
          )
        )
        (8): CAMDenseTDNNLayer(
          (nonlinear1): Sequential(
            (batchnorm): BatchNorm1d(384, eps=1e-05, momentum=0.1, affine=True, track_running_stats=True)
            (relu): ReLU(inplace=True)
          )
          (linear1): Conv1d(384, 128, kernel_size=(1,), stride=(1,), bias=False)
          (nonlinear2): Sequential(
            (batchnorm): BatchNorm1d(128, eps=1e-05, momentum=0.1, affine=True, track_running_stats=True)
            (relu): ReLU(inplace=True)
          )
          (cam_layer): CAMLayer(
            (linear_local): Conv1d(128, 32, kernel_size=(3,), stride=(1,), padding=(1,), bias=False)
            (linear1): Conv1d(128, 64, kernel_size=(1,), stride=(1,))
            (relu): ReLU(inplace=True)
            (linear2): Conv1d(64, 32, kernel_size=(1,), stride=(1,))
            (sigmoid): Sigmoid()
          )
        )
        (9): CAMDenseTDNNLayer(
          (nonlinear1): Sequential(
            (batchnorm): BatchNorm1d(416, eps=1e-05, momentum=0.1, affine=True, track_running_stats=True)
            (relu): ReLU(inplace=True)
          )
          (linear1): Conv1d(416, 128, kernel_size=(1,), stride=(1,), bias=False)
          (nonlinear2): Sequential(
            (batchnorm): BatchNorm1d(128, eps=1e-05, momentum=0.1, affine=True, track_running_stats=True)
            (relu): ReLU(inplace=True)
          )
          (cam_layer): CAMLayer(
            (linear_local): Conv1d(128, 32, kernel_size=(3,), stride=(1,), padding=(1,), bias=False)
            (linear1): Conv1d(128, 64, kernel_size=(1,), stride=(1,))
            (relu): ReLU(inplace=True)
            (linear2): Conv1d(64, 32, kernel_size=(1,), stride=(1,))
            (sigmoid): Sigmoid()
          )
        )
        (10): CAMDenseTDNNLayer(
          (nonlinear1): Sequential(
            (batchnorm): BatchNorm1d(448, eps=1e-05, momentum=0.1, affine=True, track_running_stats=True)
            (relu): ReLU(inplace=True)
          )
          (linear1): Conv1d(448, 128, kernel_size=(1,), stride=(1,), bias=False)
          (nonlinear2): Sequential(
            (batchnorm): BatchNorm1d(128, eps=1e-05, momentum=0.1, affine=True, track_running_stats=True)
            (relu): ReLU(inplace=True)
          )
          (cam_layer): CAMLayer(
            (linear_local): Conv1d(128, 32, kernel_size=(3,), stride=(1,), padding=(1,), bias=False)
            (linear1): Conv1d(128, 64, kernel_size=(1,), stride=(1,))
            (relu): ReLU(inplace=True)
            (linear2): Conv1d(64, 32, kernel_size=(1,), stride=(1,))
            (sigmoid): Sigmoid()
          )
        )
        (11): CAMDenseTDNNLayer(
          (nonlinear1): Sequential(
            (batchnorm): BatchNorm1d(480, eps=1e-05, momentum=0.1, affine=True, track_running_stats=True)
            (relu): ReLU(inplace=True)
          )
          (linear1): Conv1d(480, 128, kernel_size=(1,), stride=(1,), bias=False)
          (nonlinear2): Sequential(
            (batchnorm): BatchNorm1d(128, eps=1e-05, momentum=0.1, affine=True, track_running_stats=True)
            (relu): ReLU(inplace=True)
          )
          (cam_layer): CAMLayer(
            (linear_local): Conv1d(128, 32, kernel_size=(3,), stride=(1,), padding=(1,), bias=False)
            (linear1): Conv1d(128, 64, kernel_size=(1,), stride=(1,))
            (relu): ReLU(inplace=True)
            (linear2): Conv1d(64, 32, kernel_size=(1,), stride=(1,))
            (sigmoid): Sigmoid()
          )
        )
      )
      (transit1): TransitLayer(
        (nonlinear): Sequential(
          (batchnorm): BatchNorm1d(512, eps=1e-05, momentum=0.1, affine=True, track_running_stats=True)
          (relu): ReLU(inplace=True)
        )
        (linear): Conv1d(512, 256, kernel_size=(1,), stride=(1,), bias=False)
      )
      (block2): CAMDenseTDNNBlock(
        (0): CAMDenseTDNNLayer(
          (nonlinear1): Sequential(
            (batchnorm): BatchNorm1d(256, eps=1e-05, momentum=0.1, affine=True, track_running_stats=True)
            (relu): ReLU(inplace=True)
          )
          (linear1): Conv1d(256, 128, kernel_size=(1,), stride=(1,), bias=False)
          (nonlinear2): Sequential(
            (batchnorm): BatchNorm1d(128, eps=1e-05, momentum=0.1, affine=True, track_running_stats=True)
            (relu): ReLU(inplace=True)
          )
          (cam_layer): CAMLayer(
            (linear_local): Conv1d(128, 32, kernel_size=(3,), stride=(1,), padding=(2,), dilation=(2,), bias=False)
            (linear1): Conv1d(128, 64, kernel_size=(1,), stride=(1,))
            (relu): ReLU(inplace=True)
            (linear2): Conv1d(64, 32, kernel_size=(1,), stride=(1,))
            (sigmoid): Sigmoid()
          )
        )
        (1): CAMDenseTDNNLayer(
          (nonlinear1): Sequential(
            (batchnorm): BatchNorm1d(288, eps=1e-05, momentum=0.1, affine=True, track_running_stats=True)
            (relu): ReLU(inplace=True)
          )
          (linear1): Conv1d(288, 128, kernel_size=(1,), stride=(1,), bias=False)
          (nonlinear2): Sequential(
            (batchnorm): BatchNorm1d(128, eps=1e-05, momentum=0.1, affine=True, track_running_stats=True)
            (relu): ReLU(inplace=True)
          )
          (cam_layer): CAMLayer(
            (linear_local): Conv1d(128, 32, kernel_size=(3,), stride=(1,), padding=(2,), dilation=(2,), bias=False)
            (linear1): Conv1d(128, 64, kernel_size=(1,), stride=(1,))
            (relu): ReLU(inplace=True)
            (linear2): Conv1d(64, 32, kernel_size=(1,), stride=(1,))
            (sigmoid): Sigmoid()
          )
        )
        (2): CAMDenseTDNNLayer(
          (nonlinear1): Sequential(
            (batchnorm): BatchNorm1d(320, eps=1e-05, momentum=0.1, affine=True, track_running_stats=True)
            (relu): ReLU(inplace=True)
          )
          (linear1): Conv1d(320, 128, kernel_size=(1,), stride=(1,), bias=False)
          (nonlinear2): Sequential(
            (batchnorm): BatchNorm1d(128, eps=1e-05, momentum=0.1, affine=True, track_running_stats=True)
            (relu): ReLU(inplace=True)
          )
          (cam_layer): CAMLayer(
            (linear_local): Conv1d(128, 32, kernel_size=(3,), stride=(1,), padding=(2,), dilation=(2,), bias=False)
            (linear1): Conv1d(128, 64, kernel_size=(1,), stride=(1,))
            (relu): ReLU(inplace=True)
            (linear2): Conv1d(64, 32, kernel_size=(1,), stride=(1,))
            (sigmoid): Sigmoid()
          )
        )
        (3): CAMDenseTDNNLayer(
          (nonlinear1): Sequential(
            (batchnorm): BatchNorm1d(352, eps=1e-05, momentum=0.1, affine=True, track_running_stats=True)
            (relu): ReLU(inplace=True)
          )
          (linear1): Conv1d(352, 128, kernel_size=(1,), stride=(1,), bias=False)
          (nonlinear2): Sequential(
            (batchnorm): BatchNorm1d(128, eps=1e-05, momentum=0.1, affine=True, track_running_stats=True)
            (relu): ReLU(inplace=True)
          )
          (cam_layer): CAMLayer(
            (linear_local): Conv1d(128, 32, kernel_size=(3,), stride=(1,), padding=(2,), dilation=(2,), bias=False)
            (linear1): Conv1d(128, 64, kernel_size=(1,), stride=(1,))
            (relu): ReLU(inplace=True)
            (linear2): Conv1d(64, 32, kernel_size=(1,), stride=(1,))
            (sigmoid): Sigmoid()
          )
        )
        (4): CAMDenseTDNNLayer(
          (nonlinear1): Sequential(
            (batchnorm): BatchNorm1d(384, eps=1e-05, momentum=0.1, affine=True, track_running_stats=True)
            (relu): ReLU(inplace=True)
          )
          (linear1): Conv1d(384, 128, kernel_size=(1,), stride=(1,), bias=False)
          (nonlinear2): Sequential(
            (batchnorm): BatchNorm1d(128, eps=1e-05, momentum=0.1, affine=True, track_running_stats=True)
            (relu): ReLU(inplace=True)
          )
          (cam_layer): CAMLayer(
            (linear_local): Conv1d(128, 32, kernel_size=(3,), stride=(1,), padding=(2,), dilation=(2,), bias=False)
            (linear1): Conv1d(128, 64, kernel_size=(1,), stride=(1,))
            (relu): ReLU(inplace=True)
            (linear2): Conv1d(64, 32, kernel_size=(1,), stride=(1,))
            (sigmoid): Sigmoid()
          )
        )
        (5): CAMDenseTDNNLayer(
          (nonlinear1): Sequential(
            (batchnorm): BatchNorm1d(416, eps=1e-05, momentum=0.1, affine=True, track_running_stats=True)
            (relu): ReLU(inplace=True)
          )
          (linear1): Conv1d(416, 128, kernel_size=(1,), stride=(1,), bias=False)
          (nonlinear2): Sequential(
            (batchnorm): BatchNorm1d(128, eps=1e-05, momentum=0.1, affine=True, track_running_stats=True)
            (relu): ReLU(inplace=True)
          )
          (cam_layer): CAMLayer(
            (linear_local): Conv1d(128, 32, kernel_size=(3,), stride=(1,), padding=(2,), dilation=(2,), bias=False)
            (linear1): Conv1d(128, 64, kernel_size=(1,), stride=(1,))
            (relu): ReLU(inplace=True)
            (linear2): Conv1d(64, 32, kernel_size=(1,), stride=(1,))
            (sigmoid): Sigmoid()
          )
        )
        (6): CAMDenseTDNNLayer(
          (nonlinear1): Sequential(
            (batchnorm): BatchNorm1d(448, eps=1e-05, momentum=0.1, affine=True, track_running_stats=True)
            (relu): ReLU(inplace=True)
          )
          (linear1): Conv1d(448, 128, kernel_size=(1,), stride=(1,), bias=False)
          (nonlinear2): Sequential(
            (batchnorm): BatchNorm1d(128, eps=1e-05, momentum=0.1, affine=True, track_running_stats=True)
            (relu): ReLU(inplace=True)
          )
          (cam_layer): CAMLayer(
            (linear_local): Conv1d(128, 32, kernel_size=(3,), stride=(1,), padding=(2,), dilation=(2,), bias=False)
            (linear1): Conv1d(128, 64, kernel_size=(1,), stride=(1,))
            (relu): ReLU(inplace=True)
            (linear2): Conv1d(64, 32, kernel_size=(1,), stride=(1,))
            (sigmoid): Sigmoid()
          )
        )
        (7): CAMDenseTDNNLayer(
          (nonlinear1): Sequential(
            (batchnorm): BatchNorm1d(480, eps=1e-05, momentum=0.1, affine=True, track_running_stats=True)
            (relu): ReLU(inplace=True)
          )
          (linear1): Conv1d(480, 128, kernel_size=(1,), stride=(1,), bias=False)
          (nonlinear2): Sequential(
            (batchnorm): BatchNorm1d(128, eps=1e-05, momentum=0.1, affine=True, track_running_stats=True)
            (relu): ReLU(inplace=True)
          )
          (cam_layer): CAMLayer(
            (linear_local): Conv1d(128, 32, kernel_size=(3,), stride=(1,), padding=(2,), dilation=(2,), bias=False)
            (linear1): Conv1d(128, 64, kernel_size=(1,), stride=(1,))
            (relu): ReLU(inplace=True)
            (linear2): Conv1d(64, 32, kernel_size=(1,), stride=(1,))
            (sigmoid): Sigmoid()
          )
        )
        (8): CAMDenseTDNNLayer(
          (nonlinear1): Sequential(
            (batchnorm): BatchNorm1d(512, eps=1e-05, momentum=0.1, affine=True, track_running_stats=True)
            (relu): ReLU(inplace=True)
          )
          (linear1): Conv1d(512, 128, kernel_size=(1,), stride=(1,), bias=False)
          (nonlinear2): Sequential(
            (batchnorm): BatchNorm1d(128, eps=1e-05, momentum=0.1, affine=True, track_running_stats=True)
            (relu): ReLU(inplace=True)
          )
          (cam_layer): CAMLayer(
            (linear_local): Conv1d(128, 32, kernel_size=(3,), stride=(1,), padding=(2,), dilation=(2,), bias=False)
            (linear1): Conv1d(128, 64, kernel_size=(1,), stride=(1,))
            (relu): ReLU(inplace=True)
            (linear2): Conv1d(64, 32, kernel_size=(1,), stride=(1,))
            (sigmoid): Sigmoid()
          )
        )
        (9): CAMDenseTDNNLayer(
          (nonlinear1): Sequential(
            (batchnorm): BatchNorm1d(544, eps=1e-05, momentum=0.1, affine=True, track_running_stats=True)
            (relu): ReLU(inplace=True)
          )
          (linear1): Conv1d(544, 128, kernel_size=(1,), stride=(1,), bias=False)
          (nonlinear2): Sequential(
            (batchnorm): BatchNorm1d(128, eps=1e-05, momentum=0.1, affine=True, track_running_stats=True)
            (relu): ReLU(inplace=True)
          )
          (cam_layer): CAMLayer(
            (linear_local): Conv1d(128, 32, kernel_size=(3,), stride=(1,), padding=(2,), dilation=(2,), bias=False)
            (linear1): Conv1d(128, 64, kernel_size=(1,), stride=(1,))
            (relu): ReLU(inplace=True)
            (linear2): Conv1d(64, 32, kernel_size=(1,), stride=(1,))
            (sigmoid): Sigmoid()
          )
        )
        (10): CAMDenseTDNNLayer(
          (nonlinear1): Sequential(
            (batchnorm): BatchNorm1d(576, eps=1e-05, momentum=0.1, affine=True, track_running_stats=True)
            (relu): ReLU(inplace=True)
          )
          (linear1): Conv1d(576, 128, kernel_size=(1,), stride=(1,), bias=False)
          (nonlinear2): Sequential(
            (batchnorm): BatchNorm1d(128, eps=1e-05, momentum=0.1, affine=True, track_running_stats=True)
            (relu): ReLU(inplace=True)
          )
          (cam_layer): CAMLayer(
            (linear_local): Conv1d(128, 32, kernel_size=(3,), stride=(1,), padding=(2,), dilation=(2,), bias=False)
            (linear1): Conv1d(128, 64, kernel_size=(1,), stride=(1,))
            (relu): ReLU(inplace=True)
            (linear2): Conv1d(64, 32, kernel_size=(1,), stride=(1,))
            (sigmoid): Sigmoid()
          )
        )
        (11): CAMDenseTDNNLayer(
          (nonlinear1): Sequential(
            (batchnorm): BatchNorm1d(608, eps=1e-05, momentum=0.1, affine=True, track_running_stats=True)
            (relu): ReLU(inplace=True)
          )
          (linear1): Conv1d(608, 128, kernel_size=(1,), stride=(1,), bias=False)
          (nonlinear2): Sequential(
            (batchnorm): BatchNorm1d(128, eps=1e-05, momentum=0.1, affine=True, track_running_stats=True)
            (relu): ReLU(inplace=True)
          )
          (cam_layer): CAMLayer(
            (linear_local): Conv1d(128, 32, kernel_size=(3,), stride=(1,), padding=(2,), dilation=(2,), bias=False)
            (linear1): Conv1d(128, 64, kernel_size=(1,), stride=(1,))
            (relu): ReLU(inplace=True)
            (linear2): Conv1d(64, 32, kernel_size=(1,), stride=(1,))
            (sigmoid): Sigmoid()
          )
        )
        (12): CAMDenseTDNNLayer(
          (nonlinear1): Sequential(
            (batchnorm): BatchNorm1d(640, eps=1e-05, momentum=0.1, affine=True, track_running_stats=True)
            (relu): ReLU(inplace=True)
          )
          (linear1): Conv1d(640, 128, kernel_size=(1,), stride=(1,), bias=False)
          (nonlinear2): Sequential(
            (batchnorm): BatchNorm1d(128, eps=1e-05, momentum=0.1, affine=True, track_running_stats=True)
            (relu): ReLU(inplace=True)
          )
          (cam_layer): CAMLayer(
            (linear_local): Conv1d(128, 32, kernel_size=(3,), stride=(1,), padding=(2,), dilation=(2,), bias=False)
            (linear1): Conv1d(128, 64, kernel_size=(1,), stride=(1,))
            (relu): ReLU(inplace=True)
            (linear2): Conv1d(64, 32, kernel_size=(1,), stride=(1,))
            (sigmoid): Sigmoid()
          )
        )
        (13): CAMDenseTDNNLayer(
          (nonlinear1): Sequential(
            (batchnorm): BatchNorm1d(672, eps=1e-05, momentum=0.1, affine=True, track_running_stats=True)
            (relu): ReLU(inplace=True)
          )
          (linear1): Conv1d(672, 128, kernel_size=(1,), stride=(1,), bias=False)
          (nonlinear2): Sequential(
            (batchnorm): BatchNorm1d(128, eps=1e-05, momentum=0.1, affine=True, track_running_stats=True)
            (relu): ReLU(inplace=True)
          )
          (cam_layer): CAMLayer(
            (linear_local): Conv1d(128, 32, kernel_size=(3,), stride=(1,), padding=(2,), dilation=(2,), bias=False)
            (linear1): Conv1d(128, 64, kernel_size=(1,), stride=(1,))
            (relu): ReLU(inplace=True)
            (linear2): Conv1d(64, 32, kernel_size=(1,), stride=(1,))
            (sigmoid): Sigmoid()
          )
        )
        (14): CAMDenseTDNNLayer(
          (nonlinear1): Sequential(
            (batchnorm): BatchNorm1d(704, eps=1e-05, momentum=0.1, affine=True, track_running_stats=True)
            (relu): ReLU(inplace=True)
          )
          (linear1): Conv1d(704, 128, kernel_size=(1,), stride=(1,), bias=False)
          (nonlinear2): Sequential(
            (batchnorm): BatchNorm1d(128, eps=1e-05, momentum=0.1, affine=True, track_running_stats=True)
            (relu): ReLU(inplace=True)
          )
          (cam_layer): CAMLayer(
            (linear_local): Conv1d(128, 32, kernel_size=(3,), stride=(1,), padding=(2,), dilation=(2,), bias=False)
            (linear1): Conv1d(128, 64, kernel_size=(1,), stride=(1,))
            (relu): ReLU(inplace=True)
            (linear2): Conv1d(64, 32, kernel_size=(1,), stride=(1,))
            (sigmoid): Sigmoid()
          )
        )
        (15): CAMDenseTDNNLayer(
          (nonlinear1): Sequential(
            (batchnorm): BatchNorm1d(736, eps=1e-05, momentum=0.1, affine=True, track_running_stats=True)
            (relu): ReLU(inplace=True)
          )
          (linear1): Conv1d(736, 128, kernel_size=(1,), stride=(1,), bias=False)
          (nonlinear2): Sequential(
            (batchnorm): BatchNorm1d(128, eps=1e-05, momentum=0.1, affine=True, track_running_stats=True)
            (relu): ReLU(inplace=True)
          )
          (cam_layer): CAMLayer(
            (linear_local): Conv1d(128, 32, kernel_size=(3,), stride=(1,), padding=(2,), dilation=(2,), bias=False)
            (linear1): Conv1d(128, 64, kernel_size=(1,), stride=(1,))
            (relu): ReLU(inplace=True)
            (linear2): Conv1d(64, 32, kernel_size=(1,), stride=(1,))
            (sigmoid): Sigmoid()
          )
        )
        (16): CAMDenseTDNNLayer(
          (nonlinear1): Sequential(
            (batchnorm): BatchNorm1d(768, eps=1e-05, momentum=0.1, affine=True, track_running_stats=True)
            (relu): ReLU(inplace=True)
          )
          (linear1): Conv1d(768, 128, kernel_size=(1,), stride=(1,), bias=False)
          (nonlinear2): Sequential(
            (batchnorm): BatchNorm1d(128, eps=1e-05, momentum=0.1, affine=True, track_running_stats=True)
            (relu): ReLU(inplace=True)
          )
          (cam_layer): CAMLayer(
            (linear_local): Conv1d(128, 32, kernel_size=(3,), stride=(1,), padding=(2,), dilation=(2,), bias=False)
            (linear1): Conv1d(128, 64, kernel_size=(1,), stride=(1,))
            (relu): ReLU(inplace=True)
            (linear2): Conv1d(64, 32, kernel_size=(1,), stride=(1,))
            (sigmoid): Sigmoid()
          )
        )
        (17): CAMDenseTDNNLayer(
          (nonlinear1): Sequential(
            (batchnorm): BatchNorm1d(800, eps=1e-05, momentum=0.1, affine=True, track_running_stats=True)
            (relu): ReLU(inplace=True)
          )
          (linear1): Conv1d(800, 128, kernel_size=(1,), stride=(1,), bias=False)
          (nonlinear2): Sequential(
            (batchnorm): BatchNorm1d(128, eps=1e-05, momentum=0.1, affine=True, track_running_stats=True)
            (relu): ReLU(inplace=True)
          )
          (cam_layer): CAMLayer(
            (linear_local): Conv1d(128, 32, kernel_size=(3,), stride=(1,), padding=(2,), dilation=(2,), bias=False)
            (linear1): Conv1d(128, 64, kernel_size=(1,), stride=(1,))
            (relu): ReLU(inplace=True)
            (linear2): Conv1d(64, 32, kernel_size=(1,), stride=(1,))
            (sigmoid): Sigmoid()
          )
        )
        (18): CAMDenseTDNNLayer(
          (nonlinear1): Sequential(
            (batchnorm): BatchNorm1d(832, eps=1e-05, momentum=0.1, affine=True, track_running_stats=True)
            (relu): ReLU(inplace=True)
          )
          (linear1): Conv1d(832, 128, kernel_size=(1,), stride=(1,), bias=False)
          (nonlinear2): Sequential(
            (batchnorm): BatchNorm1d(128, eps=1e-05, momentum=0.1, affine=True, track_running_stats=True)
            (relu): ReLU(inplace=True)
          )
          (cam_layer): CAMLayer(
            (linear_local): Conv1d(128, 32, kernel_size=(3,), stride=(1,), padding=(2,), dilation=(2,), bias=False)
            (linear1): Conv1d(128, 64, kernel_size=(1,), stride=(1,))
            (relu): ReLU(inplace=True)
            (linear2): Conv1d(64, 32, kernel_size=(1,), stride=(1,))
            (sigmoid): Sigmoid()
          )
        )
        (19): CAMDenseTDNNLayer(
          (nonlinear1): Sequential(
            (batchnorm): BatchNorm1d(864, eps=1e-05, momentum=0.1, affine=True, track_running_stats=True)
            (relu): ReLU(inplace=True)
          )
          (linear1): Conv1d(864, 128, kernel_size=(1,), stride=(1,), bias=False)
          (nonlinear2): Sequential(
            (batchnorm): BatchNorm1d(128, eps=1e-05, momentum=0.1, affine=True, track_running_stats=True)
            (relu): ReLU(inplace=True)
          )
          (cam_layer): CAMLayer(
            (linear_local): Conv1d(128, 32, kernel_size=(3,), stride=(1,), padding=(2,), dilation=(2,), bias=False)
            (linear1): Conv1d(128, 64, kernel_size=(1,), stride=(1,))
            (relu): ReLU(inplace=True)
            (linear2): Conv1d(64, 32, kernel_size=(1,), stride=(1,))
            (sigmoid): Sigmoid()
          )
        )
        (20): CAMDenseTDNNLayer(
          (nonlinear1): Sequential(
            (batchnorm): BatchNorm1d(896, eps=1e-05, momentum=0.1, affine=True, track_running_stats=True)
            (relu): ReLU(inplace=True)
          )
          (linear1): Conv1d(896, 128, kernel_size=(1,), stride=(1,), bias=False)
          (nonlinear2): Sequential(
            (batchnorm): BatchNorm1d(128, eps=1e-05, momentum=0.1, affine=True, track_running_stats=True)
            (relu): ReLU(inplace=True)
          )
          (cam_layer): CAMLayer(
            (linear_local): Conv1d(128, 32, kernel_size=(3,), stride=(1,), padding=(2,), dilation=(2,), bias=False)
            (linear1): Conv1d(128, 64, kernel_size=(1,), stride=(1,))
            (relu): ReLU(inplace=True)
            (linear2): Conv1d(64, 32, kernel_size=(1,), stride=(1,))
            (sigmoid): Sigmoid()
          )
        )
        (21): CAMDenseTDNNLayer(
          (nonlinear1): Sequential(
            (batchnorm): BatchNorm1d(928, eps=1e-05, momentum=0.1, affine=True, track_running_stats=True)
            (relu): ReLU(inplace=True)
          )
          (linear1): Conv1d(928, 128, kernel_size=(1,), stride=(1,), bias=False)
          (nonlinear2): Sequential(
            (batchnorm): BatchNorm1d(128, eps=1e-05, momentum=0.1, affine=True, track_running_stats=True)
            (relu): ReLU(inplace=True)
          )
          (cam_layer): CAMLayer(
            (linear_local): Conv1d(128, 32, kernel_size=(3,), stride=(1,), padding=(2,), dilation=(2,), bias=False)
            (linear1): Conv1d(128, 64, kernel_size=(1,), stride=(1,))
            (relu): ReLU(inplace=True)
            (linear2): Conv1d(64, 32, kernel_size=(1,), stride=(1,))
            (sigmoid): Sigmoid()
          )
        )
        (22): CAMDenseTDNNLayer(
          (nonlinear1): Sequential(
            (batchnorm): BatchNorm1d(960, eps=1e-05, momentum=0.1, affine=True, track_running_stats=True)
            (relu): ReLU(inplace=True)
          )
          (linear1): Conv1d(960, 128, kernel_size=(1,), stride=(1,), bias=False)
          (nonlinear2): Sequential(
            (batchnorm): BatchNorm1d(128, eps=1e-05, momentum=0.1, affine=True, track_running_stats=True)
            (relu): ReLU(inplace=True)
          )
          (cam_layer): CAMLayer(
            (linear_local): Conv1d(128, 32, kernel_size=(3,), stride=(1,), padding=(2,), dilation=(2,), bias=False)
            (linear1): Conv1d(128, 64, kernel_size=(1,), stride=(1,))
            (relu): ReLU(inplace=True)
            (linear2): Conv1d(64, 32, kernel_size=(1,), stride=(1,))
            (sigmoid): Sigmoid()
          )
        )
        (23): CAMDenseTDNNLayer(
          (nonlinear1): Sequential(
            (batchnorm): BatchNorm1d(992, eps=1e-05, momentum=0.1, affine=True, track_running_stats=True)
            (relu): ReLU(inplace=True)
          )
          (linear1): Conv1d(992, 128, kernel_size=(1,), stride=(1,), bias=False)
          (nonlinear2): Sequential(
            (batchnorm): BatchNorm1d(128, eps=1e-05, momentum=0.1, affine=True, track_running_stats=True)
            (relu): ReLU(inplace=True)
          )
          (cam_layer): CAMLayer(
            (linear_local): Conv1d(128, 32, kernel_size=(3,), stride=(1,), padding=(2,), dilation=(2,), bias=False)
            (linear1): Conv1d(128, 64, kernel_size=(1,), stride=(1,))
            (relu): ReLU(inplace=True)
            (linear2): Conv1d(64, 32, kernel_size=(1,), stride=(1,))
            (sigmoid): Sigmoid()
          )
        )
      )
      (transit2): TransitLayer(
        (nonlinear): Sequential(
          (batchnorm): BatchNorm1d(1024, eps=1e-05, momentum=0.1, affine=True, track_running_stats=True)
          (relu): ReLU(inplace=True)
        )
        (linear): Conv1d(1024, 512, kernel_size=(1,), stride=(1,), bias=False)
      )
      (block3): CAMDenseTDNNBlock(
        (0): CAMDenseTDNNLayer(
          (nonlinear1): Sequential(
            (batchnorm): BatchNorm1d(512, eps=1e-05, momentum=0.1, affine=True, track_running_stats=True)
            (relu): ReLU(inplace=True)
          )
          (linear1): Conv1d(512, 128, kernel_size=(1,), stride=(1,), bias=False)
          (nonlinear2): Sequential(
            (batchnorm): BatchNorm1d(128, eps=1e-05, momentum=0.1, affine=True, track_running_stats=True)
            (relu): ReLU(inplace=True)
          )
          (cam_layer): CAMLayer(
            (linear_local): Conv1d(128, 32, kernel_size=(3,), stride=(1,), padding=(2,), dilation=(2,), bias=False)
            (linear1): Conv1d(128, 64, kernel_size=(1,), stride=(1,))
            (relu): ReLU(inplace=True)
            (linear2): Conv1d(64, 32, kernel_size=(1,), stride=(1,))
            (sigmoid): Sigmoid()
          )
        )
        (1): CAMDenseTDNNLayer(
          (nonlinear1): Sequential(
            (batchnorm): BatchNorm1d(544, eps=1e-05, momentum=0.1, affine=True, track_running_stats=True)
            (relu): ReLU(inplace=True)
          )
          (linear1): Conv1d(544, 128, kernel_size=(1,), stride=(1,), bias=False)
          (nonlinear2): Sequential(
            (batchnorm): BatchNorm1d(128, eps=1e-05, momentum=0.1, affine=True, track_running_stats=True)
            (relu): ReLU(inplace=True)
          )
          (cam_layer): CAMLayer(
            (linear_local): Conv1d(128, 32, kernel_size=(3,), stride=(1,), padding=(2,), dilation=(2,), bias=False)
            (linear1): Conv1d(128, 64, kernel_size=(1,), stride=(1,))
            (relu): ReLU(inplace=True)
            (linear2): Conv1d(64, 32, kernel_size=(1,), stride=(1,))
            (sigmoid): Sigmoid()
          )
        )
        (2): CAMDenseTDNNLayer(
          (nonlinear1): Sequential(
            (batchnorm): BatchNorm1d(576, eps=1e-05, momentum=0.1, affine=True, track_running_stats=True)
            (relu): ReLU(inplace=True)
          )
          (linear1): Conv1d(576, 128, kernel_size=(1,), stride=(1,), bias=False)
          (nonlinear2): Sequential(
            (batchnorm): BatchNorm1d(128, eps=1e-05, momentum=0.1, affine=True, track_running_stats=True)
            (relu): ReLU(inplace=True)
          )
          (cam_layer): CAMLayer(
            (linear_local): Conv1d(128, 32, kernel_size=(3,), stride=(1,), padding=(2,), dilation=(2,), bias=False)
            (linear1): Conv1d(128, 64, kernel_size=(1,), stride=(1,))
            (relu): ReLU(inplace=True)
            (linear2): Conv1d(64, 32, kernel_size=(1,), stride=(1,))
            (sigmoid): Sigmoid()
          )
        )
        (3): CAMDenseTDNNLayer(
          (nonlinear1): Sequential(
            (batchnorm): BatchNorm1d(608, eps=1e-05, momentum=0.1, affine=True, track_running_stats=True)
            (relu): ReLU(inplace=True)
          )
          (linear1): Conv1d(608, 128, kernel_size=(1,), stride=(1,), bias=False)
          (nonlinear2): Sequential(
            (batchnorm): BatchNorm1d(128, eps=1e-05, momentum=0.1, affine=True, track_running_stats=True)
            (relu): ReLU(inplace=True)
          )
          (cam_layer): CAMLayer(
            (linear_local): Conv1d(128, 32, kernel_size=(3,), stride=(1,), padding=(2,), dilation=(2,), bias=False)
            (linear1): Conv1d(128, 64, kernel_size=(1,), stride=(1,))
            (relu): ReLU(inplace=True)
            (linear2): Conv1d(64, 32, kernel_size=(1,), stride=(1,))
            (sigmoid): Sigmoid()
          )
        )
        (4): CAMDenseTDNNLayer(
          (nonlinear1): Sequential(
            (batchnorm): BatchNorm1d(640, eps=1e-05, momentum=0.1, affine=True, track_running_stats=True)
            (relu): ReLU(inplace=True)
          )
          (linear1): Conv1d(640, 128, kernel_size=(1,), stride=(1,), bias=False)
          (nonlinear2): Sequential(
            (batchnorm): BatchNorm1d(128, eps=1e-05, momentum=0.1, affine=True, track_running_stats=True)
            (relu): ReLU(inplace=True)
          )
          (cam_layer): CAMLayer(
            (linear_local): Conv1d(128, 32, kernel_size=(3,), stride=(1,), padding=(2,), dilation=(2,), bias=False)
            (linear1): Conv1d(128, 64, kernel_size=(1,), stride=(1,))
            (relu): ReLU(inplace=True)
            (linear2): Conv1d(64, 32, kernel_size=(1,), stride=(1,))
            (sigmoid): Sigmoid()
          )
        )
        (5): CAMDenseTDNNLayer(
          (nonlinear1): Sequential(
            (batchnorm): BatchNorm1d(672, eps=1e-05, momentum=0.1, affine=True, track_running_stats=True)
            (relu): ReLU(inplace=True)
          )
          (linear1): Conv1d(672, 128, kernel_size=(1,), stride=(1,), bias=False)
          (nonlinear2): Sequential(
            (batchnorm): BatchNorm1d(128, eps=1e-05, momentum=0.1, affine=True, track_running_stats=True)
            (relu): ReLU(inplace=True)
          )
          (cam_layer): CAMLayer(
            (linear_local): Conv1d(128, 32, kernel_size=(3,), stride=(1,), padding=(2,), dilation=(2,), bias=False)
            (linear1): Conv1d(128, 64, kernel_size=(1,), stride=(1,))
            (relu): ReLU(inplace=True)
            (linear2): Conv1d(64, 32, kernel_size=(1,), stride=(1,))
            (sigmoid): Sigmoid()
          )
        )
        (6): CAMDenseTDNNLayer(
          (nonlinear1): Sequential(
            (batchnorm): BatchNorm1d(704, eps=1e-05, momentum=0.1, affine=True, track_running_stats=True)
            (relu): ReLU(inplace=True)
          )
          (linear1): Conv1d(704, 128, kernel_size=(1,), stride=(1,), bias=False)
          (nonlinear2): Sequential(
            (batchnorm): BatchNorm1d(128, eps=1e-05, momentum=0.1, affine=True, track_running_stats=True)
            (relu): ReLU(inplace=True)
          )
          (cam_layer): CAMLayer(
            (linear_local): Conv1d(128, 32, kernel_size=(3,), stride=(1,), padding=(2,), dilation=(2,), bias=False)
            (linear1): Conv1d(128, 64, kernel_size=(1,), stride=(1,))
            (relu): ReLU(inplace=True)
            (linear2): Conv1d(64, 32, kernel_size=(1,), stride=(1,))
            (sigmoid): Sigmoid()
          )
        )
        (7): CAMDenseTDNNLayer(
          (nonlinear1): Sequential(
            (batchnorm): BatchNorm1d(736, eps=1e-05, momentum=0.1, affine=True, track_running_stats=True)
            (relu): ReLU(inplace=True)
          )
          (linear1): Conv1d(736, 128, kernel_size=(1,), stride=(1,), bias=False)
          (nonlinear2): Sequential(
            (batchnorm): BatchNorm1d(128, eps=1e-05, momentum=0.1, affine=True, track_running_stats=True)
            (relu): ReLU(inplace=True)
          )
          (cam_layer): CAMLayer(
            (linear_local): Conv1d(128, 32, kernel_size=(3,), stride=(1,), padding=(2,), dilation=(2,), bias=False)
            (linear1): Conv1d(128, 64, kernel_size=(1,), stride=(1,))
            (relu): ReLU(inplace=True)
            (linear2): Conv1d(64, 32, kernel_size=(1,), stride=(1,))
            (sigmoid): Sigmoid()
          )
        )
        (8): CAMDenseTDNNLayer(
          (nonlinear1): Sequential(
            (batchnorm): BatchNorm1d(768, eps=1e-05, momentum=0.1, affine=True, track_running_stats=True)
            (relu): ReLU(inplace=True)
          )
          (linear1): Conv1d(768, 128, kernel_size=(1,), stride=(1,), bias=False)
          (nonlinear2): Sequential(
            (batchnorm): BatchNorm1d(128, eps=1e-05, momentum=0.1, affine=True, track_running_stats=True)
            (relu): ReLU(inplace=True)
          )
          (cam_layer): CAMLayer(
            (linear_local): Conv1d(128, 32, kernel_size=(3,), stride=(1,), padding=(2,), dilation=(2,), bias=False)
            (linear1): Conv1d(128, 64, kernel_size=(1,), stride=(1,))
            (relu): ReLU(inplace=True)
            (linear2): Conv1d(64, 32, kernel_size=(1,), stride=(1,))
            (sigmoid): Sigmoid()
          )
        )
        (9): CAMDenseTDNNLayer(
          (nonlinear1): Sequential(
            (batchnorm): BatchNorm1d(800, eps=1e-05, momentum=0.1, affine=True, track_running_stats=True)
            (relu): ReLU(inplace=True)
          )
          (linear1): Conv1d(800, 128, kernel_size=(1,), stride=(1,), bias=False)
          (nonlinear2): Sequential(
            (batchnorm): BatchNorm1d(128, eps=1e-05, momentum=0.1, affine=True, track_running_stats=True)
            (relu): ReLU(inplace=True)
          )
          (cam_layer): CAMLayer(
            (linear_local): Conv1d(128, 32, kernel_size=(3,), stride=(1,), padding=(2,), dilation=(2,), bias=False)
            (linear1): Conv1d(128, 64, kernel_size=(1,), stride=(1,))
            (relu): ReLU(inplace=True)
            (linear2): Conv1d(64, 32, kernel_size=(1,), stride=(1,))
            (sigmoid): Sigmoid()
          )
        )
        (10): CAMDenseTDNNLayer(
          (nonlinear1): Sequential(
            (batchnorm): BatchNorm1d(832, eps=1e-05, momentum=0.1, affine=True, track_running_stats=True)
            (relu): ReLU(inplace=True)
          )
          (linear1): Conv1d(832, 128, kernel_size=(1,), stride=(1,), bias=False)
          (nonlinear2): Sequential(
            (batchnorm): BatchNorm1d(128, eps=1e-05, momentum=0.1, affine=True, track_running_stats=True)
            (relu): ReLU(inplace=True)
          )
          (cam_layer): CAMLayer(
            (linear_local): Conv1d(128, 32, kernel_size=(3,), stride=(1,), padding=(2,), dilation=(2,), bias=False)
            (linear1): Conv1d(128, 64, kernel_size=(1,), stride=(1,))
            (relu): ReLU(inplace=True)
            (linear2): Conv1d(64, 32, kernel_size=(1,), stride=(1,))
            (sigmoid): Sigmoid()
          )
        )
        (11): CAMDenseTDNNLayer(
          (nonlinear1): Sequential(
            (batchnorm): BatchNorm1d(864, eps=1e-05, momentum=0.1, affine=True, track_running_stats=True)
            (relu): ReLU(inplace=True)
          )
          (linear1): Conv1d(864, 128, kernel_size=(1,), stride=(1,), bias=False)
          (nonlinear2): Sequential(
            (batchnorm): BatchNorm1d(128, eps=1e-05, momentum=0.1, affine=True, track_running_stats=True)
            (relu): ReLU(inplace=True)
          )
          (cam_layer): CAMLayer(
            (linear_local): Conv1d(128, 32, kernel_size=(3,), stride=(1,), padding=(2,), dilation=(2,), bias=False)
            (linear1): Conv1d(128, 64, kernel_size=(1,), stride=(1,))
            (relu): ReLU(inplace=True)
            (linear2): Conv1d(64, 32, kernel_size=(1,), stride=(1,))
            (sigmoid): Sigmoid()
          )
        )
        (12): CAMDenseTDNNLayer(
          (nonlinear1): Sequential(
            (batchnorm): BatchNorm1d(896, eps=1e-05, momentum=0.1, affine=True, track_running_stats=True)
            (relu): ReLU(inplace=True)
          )
          (linear1): Conv1d(896, 128, kernel_size=(1,), stride=(1,), bias=False)
          (nonlinear2): Sequential(
            (batchnorm): BatchNorm1d(128, eps=1e-05, momentum=0.1, affine=True, track_running_stats=True)
            (relu): ReLU(inplace=True)
          )
          (cam_layer): CAMLayer(
            (linear_local): Conv1d(128, 32, kernel_size=(3,), stride=(1,), padding=(2,), dilation=(2,), bias=False)
            (linear1): Conv1d(128, 64, kernel_size=(1,), stride=(1,))
            (relu): ReLU(inplace=True)
            (linear2): Conv1d(64, 32, kernel_size=(1,), stride=(1,))
            (sigmoid): Sigmoid()
          )
        )
        (13): CAMDenseTDNNLayer(
          (nonlinear1): Sequential(
            (batchnorm): BatchNorm1d(928, eps=1e-05, momentum=0.1, affine=True, track_running_stats=True)
            (relu): ReLU(inplace=True)
          )
          (linear1): Conv1d(928, 128, kernel_size=(1,), stride=(1,), bias=False)
          (nonlinear2): Sequential(
            (batchnorm): BatchNorm1d(128, eps=1e-05, momentum=0.1, affine=True, track_running_stats=True)
            (relu): ReLU(inplace=True)
          )
          (cam_layer): CAMLayer(
            (linear_local): Conv1d(128, 32, kernel_size=(3,), stride=(1,), padding=(2,), dilation=(2,), bias=False)
            (linear1): Conv1d(128, 64, kernel_size=(1,), stride=(1,))
            (relu): ReLU(inplace=True)
            (linear2): Conv1d(64, 32, kernel_size=(1,), stride=(1,))
            (sigmoid): Sigmoid()
          )
        )
        (14): CAMDenseTDNNLayer(
          (nonlinear1): Sequential(
            (batchnorm): BatchNorm1d(960, eps=1e-05, momentum=0.1, affine=True, track_running_stats=True)
            (relu): ReLU(inplace=True)
          )
          (linear1): Conv1d(960, 128, kernel_size=(1,), stride=(1,), bias=False)
          (nonlinear2): Sequential(
            (batchnorm): BatchNorm1d(128, eps=1e-05, momentum=0.1, affine=True, track_running_stats=True)
            (relu): ReLU(inplace=True)
          )
          (cam_layer): CAMLayer(
            (linear_local): Conv1d(128, 32, kernel_size=(3,), stride=(1,), padding=(2,), dilation=(2,), bias=False)
            (linear1): Conv1d(128, 64, kernel_size=(1,), stride=(1,))
            (relu): ReLU(inplace=True)
            (linear2): Conv1d(64, 32, kernel_size=(1,), stride=(1,))
            (sigmoid): Sigmoid()
          )
        )
        (15): CAMDenseTDNNLayer(
          (nonlinear1): Sequential(
            (batchnorm): BatchNorm1d(992, eps=1e-05, momentum=0.1, affine=True, track_running_stats=True)
            (relu): ReLU(inplace=True)
          )
          (linear1): Conv1d(992, 128, kernel_size=(1,), stride=(1,), bias=False)
          (nonlinear2): Sequential(
            (batchnorm): BatchNorm1d(128, eps=1e-05, momentum=0.1, affine=True, track_running_stats=True)
            (relu): ReLU(inplace=True)
          )
          (cam_layer): CAMLayer(
            (linear_local): Conv1d(128, 32, kernel_size=(3,), stride=(1,), padding=(2,), dilation=(2,), bias=False)
            (linear1): Conv1d(128, 64, kernel_size=(1,), stride=(1,))
            (relu): ReLU(inplace=True)
            (linear2): Conv1d(64, 32, kernel_size=(1,), stride=(1,))
            (sigmoid): Sigmoid()
          )
        )
      )
      (transit3): TransitLayer(
        (nonlinear): Sequential(
          (batchnorm): BatchNorm1d(1024, eps=1e-05, momentum=0.1, affine=True, track_running_stats=True)
          (relu): ReLU(inplace=True)
        )
        (linear): Conv1d(1024, 512, kernel_size=(1,), stride=(1,), bias=False)
      )
      (out_nonlinear): Sequential(
        (batchnorm): BatchNorm1d(512, eps=1e-05, momentum=0.1, affine=True, track_running_stats=True)
        (relu): ReLU(inplace=True)
      )
      (stats): StatsPool()
      (dense): DenseLayer(
        (linear): Conv1d(1024, 192, kernel_size=(1,), stride=(1,), bias=False)
        (nonlinear): Sequential(
          (batchnorm): BatchNorm1d(192, eps=1e-05, momentum=0.1, affine=False, track_running_stats=True)
        )
      )
    )
  )
  (flow): CausalMaskedDiffWithXvec(
    (input_embedding): Embedding(6561, 512)
    (spk_embed_affine_layer): Linear(in_features=192, out_features=80, bias=True)
    (encoder): UpsampleConformerEncoder(
      (embed): LinearNoSubsampling(
        (out): Sequential(
          (0): Linear(in_features=512, out_features=512, bias=True)
          (1): LayerNorm((512,), eps=1e-05, elementwise_affine=True)
          (2): Dropout(p=0.1, inplace=False)
        )
        (pos_enc): EspnetRelPositionalEncoding(
          (dropout): Dropout(p=0.1, inplace=False)
        )
      )
      (after_norm): LayerNorm((512,), eps=1e-05, elementwise_affine=True)
      (pre_lookahead_layer): PreLookaheadLayer(
        (conv1): Conv1d(512, 512, kernel_size=(4,), stride=(1,))
        (conv2): Conv1d(512, 512, kernel_size=(3,), stride=(1,))
      )
      (encoders): ModuleList(
        (0-5): 6 x ConformerEncoderLayer(
          (self_attn): RelPositionMultiHeadedAttention(
            (linear_q): Linear(in_features=512, out_features=512, bias=True)
            (linear_k): Linear(in_features=512, out_features=512, bias=True)
            (linear_v): Linear(in_features=512, out_features=512, bias=True)
            (linear_out): Linear(in_features=512, out_features=512, bias=True)
            (dropout): Dropout(p=0.1, inplace=False)
            (linear_pos): Linear(in_features=512, out_features=512, bias=False)
          )
          (feed_forward): PositionwiseFeedForward(
            (w_1): Linear(in_features=512, out_features=2048, bias=True)
            (activation): SiLU()
            (dropout): Dropout(p=0.1, inplace=False)
            (w_2): Linear(in_features=2048, out_features=512, bias=True)
          )
          (norm_ff): LayerNorm((512,), eps=1e-12, elementwise_affine=True)
          (norm_mha): LayerNorm((512,), eps=1e-12, elementwise_affine=True)
          (dropout): Dropout(p=0.1, inplace=False)
        )
      )
      (up_layer): Upsample1D(
        (conv): Conv1d(512, 512, kernel_size=(5,), stride=(1,))
      )
      (up_embed): LinearNoSubsampling(
        (out): Sequential(
          (0): Linear(in_features=512, out_features=512, bias=True)
          (1): LayerNorm((512,), eps=1e-05, elementwise_affine=True)
          (2): Dropout(p=0.1, inplace=False)
        )
        (pos_enc): EspnetRelPositionalEncoding(
          (dropout): Dropout(p=0.1, inplace=False)
        )
      )
      (up_encoders): ModuleList(
        (0-3): 4 x ConformerEncoderLayer(
          (self_attn): RelPositionMultiHeadedAttention(
            (linear_q): Linear(in_features=512, out_features=512, bias=True)
            (linear_k): Linear(in_features=512, out_features=512, bias=True)
            (linear_v): Linear(in_features=512, out_features=512, bias=True)
            (linear_out): Linear(in_features=512, out_features=512, bias=True)
            (dropout): Dropout(p=0.1, inplace=False)
            (linear_pos): Linear(in_features=512, out_features=512, bias=False)
          )
          (feed_forward): PositionwiseFeedForward(
            (w_1): Linear(in_features=512, out_features=2048, bias=True)
            (activation): SiLU()
            (dropout): Dropout(p=0.1, inplace=False)
            (w_2): Linear(in_features=2048, out_features=512, bias=True)
          )
          (norm_ff): LayerNorm((512,), eps=1e-12, elementwise_affine=True)
          (norm_mha): LayerNorm((512,), eps=1e-12, elementwise_affine=True)
          (dropout): Dropout(p=0.1, inplace=False)
        )
      )
    )
    (encoder_proj): Linear(in_features=512, out_features=80, bias=True)
    (decoder): CausalConditionalCFM(
      (estimator): ConditionalDecoder(
        (time_embeddings): SinusoidalPosEmb()
        (time_mlp): TimestepEmbedding(
          (linear_1): Linear(in_features=320, out_features=1024, bias=True)
          (act): SiLU()
          (linear_2): Linear(in_features=1024, out_features=1024, bias=True)
        )
        (down_blocks): ModuleList(
          (0): ModuleList(
            (0): CausalResnetBlock1D(
              (mlp): Sequential(
                (0): Mish()
                (1): Linear(in_features=1024, out_features=256, bias=True)
              )
              (block1): CausalBlock1D(
                (block): Sequential(
                  (0): CausalConv1d(320, 256, kernel_size=(3,), stride=(1,))
                  (1): Transpose()
                  (2): LayerNorm((256,), eps=1e-05, elementwise_affine=True)
                  (3): Transpose()
                  (4): Mish()
                )
              )
              (block2): CausalBlock1D(
                (block): Sequential(
                  (0): CausalConv1d(256, 256, kernel_size=(3,), stride=(1,))
                  (1): Transpose()
                  (2): LayerNorm((256,), eps=1e-05, elementwise_affine=True)
                  (3): Transpose()
                  (4): Mish()
                )
              )
              (res_conv): Conv1d(320, 256, kernel_size=(1,), stride=(1,))
            )
            (1): ModuleList(
              (0-3): 4 x BasicTransformerBlock(
                (norm1): LayerNorm((256,), eps=1e-05, elementwise_affine=True)
                (attn1): Attention(
                  (to_q): Linear(in_features=256, out_features=512, bias=False)
                  (to_k): Linear(in_features=256, out_features=512, bias=False)
                  (to_v): Linear(in_features=256, out_features=512, bias=False)
                  (to_out): ModuleList(
                    (0): Linear(in_features=512, out_features=256, bias=True)
                    (1): Dropout(p=0.0, inplace=False)
                  )
                )
                (norm3): LayerNorm((256,), eps=1e-05, elementwise_affine=True)
                (ff): FeedForward(
                  (net): ModuleList(
                    (0): GELU(
                      (proj): Linear(in_features=256, out_features=1024, bias=True)
                    )
                    (1): Dropout(p=0.0, inplace=False)
                    (2): LoRACompatibleLinear(in_features=1024, out_features=256, bias=True)
                  )
                )
              )
            )
            (2): CausalConv1d(256, 256, kernel_size=(3,), stride=(1,))
          )
        )
        (mid_blocks): ModuleList(
          (0-11): 12 x ModuleList(
            (0): CausalResnetBlock1D(
              (mlp): Sequential(
                (0): Mish()
                (1): Linear(in_features=1024, out_features=256, bias=True)
              )
              (block1): CausalBlock1D(
                (block): Sequential(
                  (0): CausalConv1d(256, 256, kernel_size=(3,), stride=(1,))
                  (1): Transpose()
                  (2): LayerNorm((256,), eps=1e-05, elementwise_affine=True)
                  (3): Transpose()
                  (4): Mish()
                )
              )
              (block2): CausalBlock1D(
                (block): Sequential(
                  (0): CausalConv1d(256, 256, kernel_size=(3,), stride=(1,))
                  (1): Transpose()
                  (2): LayerNorm((256,), eps=1e-05, elementwise_affine=True)
                  (3): Transpose()
                  (4): Mish()
                )
              )
              (res_conv): Conv1d(256, 256, kernel_size=(1,), stride=(1,))
            )
            (1): ModuleList(
              (0-3): 4 x BasicTransformerBlock(
                (norm1): LayerNorm((256,), eps=1e-05, elementwise_affine=True)
                (attn1): Attention(
                  (to_q): Linear(in_features=256, out_features=512, bias=False)
                  (to_k): Linear(in_features=256, out_features=512, bias=False)
                  (to_v): Linear(in_features=256, out_features=512, bias=False)
                  (to_out): ModuleList(
                    (0): Linear(in_features=512, out_features=256, bias=True)
                    (1): Dropout(p=0.0, inplace=False)
                  )
                )
                (norm3): LayerNorm((256,), eps=1e-05, elementwise_affine=True)
                (ff): FeedForward(
                  (net): ModuleList(
                    (0): GELU(
                      (proj): Linear(in_features=256, out_features=1024, bias=True)
                    )
                    (1): Dropout(p=0.0, inplace=False)
                    (2): LoRACompatibleLinear(in_features=1024, out_features=256, bias=True)
                  )
                )
              )
            )
          )
        )
        (up_blocks): ModuleList(
          (0): ModuleList(
            (0): CausalResnetBlock1D(
              (mlp): Sequential(
                (0): Mish()
                (1): Linear(in_features=1024, out_features=256, bias=True)
              )
              (block1): CausalBlock1D(
                (block): Sequential(
                  (0): CausalConv1d(512, 256, kernel_size=(3,), stride=(1,))
                  (1): Transpose()
                  (2): LayerNorm((256,), eps=1e-05, elementwise_affine=True)
                  (3): Transpose()
                  (4): Mish()
                )
              )
              (block2): CausalBlock1D(
                (block): Sequential(
                  (0): CausalConv1d(256, 256, kernel_size=(3,), stride=(1,))
                  (1): Transpose()
                  (2): LayerNorm((256,), eps=1e-05, elementwise_affine=True)
                  (3): Transpose()
                  (4): Mish()
                )
              )
              (res_conv): Conv1d(512, 256, kernel_size=(1,), stride=(1,))
            )
            (1): ModuleList(
              (0-3): 4 x BasicTransformerBlock(
                (norm1): LayerNorm((256,), eps=1e-05, elementwise_affine=True)
                (attn1): Attention(
                  (to_q): Linear(in_features=256, out_features=512, bias=False)
                  (to_k): Linear(in_features=256, out_features=512, bias=False)
                  (to_v): Linear(in_features=256, out_features=512, bias=False)
                  (to_out): ModuleList(
                    (0): Linear(in_features=512, out_features=256, bias=True)
                    (1): Dropout(p=0.0, inplace=False)
                  )
                )
                (norm3): LayerNorm((256,), eps=1e-05, elementwise_affine=True)
                (ff): FeedForward(
                  (net): ModuleList(
                    (0): GELU(
                      (proj): Linear(in_features=256, out_features=1024, bias=True)
                    )
                    (1): Dropout(p=0.0, inplace=False)
                    (2): LoRACompatibleLinear(in_features=1024, out_features=256, bias=True)
                  )
                )
              )
            )
            (2): CausalConv1d(256, 256, kernel_size=(3,), stride=(1,))
          )
        )
        (final_block): CausalBlock1D(
          (block): Sequential(
            (0): CausalConv1d(256, 256, kernel_size=(3,), stride=(1,))
            (1): Transpose()
            (2): LayerNorm((256,), eps=1e-05, elementwise_affine=True)
            (3): Transpose()
            (4): Mish()
          )
        )
        (final_proj): Conv1d(256, 80, kernel_size=(1,), stride=(1,))
      )
    )
  )
  (mel2wav): HiFTGenerator(
    (m_source): SourceModuleHnNSF(
      (l_sin_gen): SineGen()
      (l_linear): Linear(in_features=9, out_features=1, bias=True)
      (l_tanh): Tanh()
    )
    (f0_upsamp): Upsample(scale_factor=480.0, mode='nearest')
    (conv_pre): ParametrizedConv1d(
      80, 512, kernel_size=(7,), stride=(1,), padding=(3,)
      (parametrizations): ModuleDict(
        (weight): ParametrizationList(
          (0): _WeightNorm()
        )
      )
    )
    (ups): ModuleList(
      (0): ParametrizedConvTranspose1d(
…
